chatbot_model.ckpt (torch, 34759 bytes, 6 tensors)

l1.weight f4 [64, 54]
00000000: 8ef3 2abe b58e 7abe f674 0f3e ea27 f03c
00000010: a934 c53d 3bad 693e ee36 a23c 64cc 753d
00000020: 03ad 843e d113 2c3e d134 173d 61a4 493d
00000030: 64e5 883e 810a aabc ae6c 0a3d 3e8b d1bd
00000040: e2df aeba a246 753c 1fbe 343e bd0f 2f3e
00000050: 7a90 88bd 41e4 623e 78ce 793d 8f98 b9bd
00000060: d27b 313e 9c32 233e 5a69 923d ad8a eabd
00000070: 5373 813c 789e 26be 30a1 073d d5fd f2bc
00000080: dd96 f4bd 891e cd3b f962 98bd c079 a63c
00000090: 4bbf 4dbc da76 103d 89e7 173e 7c2e 14bc
000000a0: 0d71 923c ee2f b43d d9a6 fabd d272 4cbd
000000b0: 8b60 313d 5278 3fbe 3815 49be d759 013c
000000c0: 3943 133e 7d38 703e 0bfc aa3d b7e7 2239
000000d0: 16a7 683e 31cf 3a3e 7d64 683e 15cb 433e
000000e0: 4e5b 17be 166d 1c3d 50dd d2bd 9903 6a3e
000000f0: 490e b83b d6eb 35bd a910 1fbe e018 5fbc
00000100: e083 e03d 6de2 013e 6a7f 01be d854 ad3d
00000110: 1527 5a3e 0374 2b3e d372 7f3e 8c01 533e
00000120: b806 963d 29d5 a73d 8a3b b43d 1f00 583d
00000130: 3d6d e73d 01f7 863d 5317 d53d b7cb cf3d
00000140: 6e5a 36be a56f 52bc 0c11 d4bd 5fb8 6c3e
00000150: d68e 4e3e 4712 353e 9b03 153e 122e b6bc
00000160: deee 18bd a03d b73d ce40 5c3d 51f4 1dbd
00000170: 8633 03be d839 cdbd cd18 543e 1b82 bbbd
00000180: bc74 a33d 319d c13c 0f70 e5bd 6afd 99bc
00000190: d2a6 423d 2893 8d3d fbee 2e3e 22c2 a0bd
000001a0: 410a 553e ee9c 85bd 82bf f5bd 73ac 6d3d
000001b0: c6fe e4bd a4b1 a43c 088b 8b3d c52a 2a3e
000001c0: 1a18 023e bf46 23be 4e3f 713e 9ea9 813e
000001d0: d681 ad3d beeb 743e d68a 0c3e 734d a63d
000001e0: edf8 1fbe b925 94bb 6e29 1abd 5d68 923e
000001f0: 170f 563e a2b7 80bd 25ae d2bc 351e ff3c
00000200: fce6 7bbd a212 883e 91e6 763d 0f8a 4a3e
00000210: 11a8 14bc 706b e73d af9a 3f3d 9fbf 2f3d
00000220: 5f31 323b 295c 7fbc 5fa0 3dbe cba3 fc3d
00000230: 504e 3f3d 70de 6f3e 724f d1bd bce6 3a3e
00000240: 2b01 10be ccbd 2e3e 6b1e 613e faa0 783e
00000250: 4f9f 553d 5c4b 8dbd 8f77 373e bcd1 803d
00000260: 3a5e bf3d 1ea7 0abe d895 36be 104b 03be
00000270: 38a5 b73d d5e0 2cbb 50a9 0f3e 0ab8 963d
00000280: 2613 453e 01e9 4e3c f804 49bd fc0a 283e
00000290: 1c92 173e 8c66 edbc d085 06be b8ff 93bd
000002a0: c6b5 e83d 010f 583d 0e63 06be 7663 8d3c
000002b0: 10fe b8bd 54a1 503e b6b8 403e 3a4d cd3d
000002c0: 3581 473c 848c 983a 00f3 c33b 112f eebd
000002d0: d1b6 923d f35e 9dbd 90ac 2abc a28a e3bc
000002e0: 7209 95bd c1dc 9c3d fb20 783d 049d 76bb
000002f0: 5f3a d13d e796 6e3e 112d 2c3e ae7f df3d
00000300: dd3a 443c 242c 823e c559 7abc 4ea9 563e
00000310: eca2 a73d 6fd2 163e ca11 963e f0f3 de3c
00000320: 1552 233e 5081 d7bc 5b73 26be b56d 283e
00000330: dc55 2c3d 70c5 a93b a442 923e e71a 873e
00000340: 3c9b 07be f8c9 a5bd 965a a1bb 780a bd3d
00000350: 3d27 453e 5a2a b93c d815 093e 1eb1 eb3d
00000360: c41c b5bd 28c9 113e 1dbd cdbd b72a 83b9
00000370: 1b38 523e b2c3 b7bc 6e7a 60bd 26a0 abbd
00000380: 6fdc cdbd 0b7f dcbc e8ef e1bc 9d2b 013d
00000390: 39b9 db3d c33b 723d 878a 1b3d 6a63 943c
000003a0: 9eb7 abbb 7a2d 643d 4fb1 3c3e bc81 14bd
000003b0: a70f c83d 351f 14bd c5a5 0dbd 15a0 813e
000003c0: ea32 ba3d 6d0c 20be a5b5 833e 01a3 ff3d
000003d0: a39d 3b3e a1b4 19bd d424 1d3e 4825 443e
000003e0: 5129 9fbd e6f3 7bbd 08dc 073d 2451 393e
000003f0: d705 f43d 6010 c3bb d92c 95bd 186b cbbc
-0.16694471 -0.24468501 0.14009461 0.029315908 0.09629185 0.22819988 0.019801583 0.060009375
0.25913247 0.16804434 0.036915604 0.04922903 0.2673751 -0.020756962 0.03379505 -0.102316365
-0.0013341869 0.014970453 0.1765065 0.17095847 -0.06668182 0.22157384 0.06098792 -0.09062301
0.1733239 0.15937275 0.071490005 -0.114522316 0.015802061 -0.16271389 0.033112705 -0.029662052
-0.119428374 0.0062597436 -0.074407525 0.020321727 -0.012557815 0.035269596 0.14834417 -0.009044286
0.017876172 0.08798204 -0.12238855 -0.04991419 0.04330496 -0.18698242 -0.19637 0.007894955
0.14381112 0.23459049 0.08348855 0.00015535844 0.22719988 0.182431 0.22694583 0.19120438
-0.14780924 0.03818997 -0.10296118 0.22852935 0.0056169373 -0.044414364 -0.15533699 -0.0136167705
0.10962653 0.12684031 -0.12646261 0.08463448 0.21303971 0.16743474 0.24946146 0.20606059
0.073255 0.08194954 0.08800419 0.05273449 0.113001324 0.06590081 0.10404839 0.101462774
-0.17807934 -0.012844001 -0.10354814 0.23117207 0.20171675 0.17682754 0.14552157 -0.022238765
-0.037337177 0.08947301 0.05377274 -0.038563076 -0.12812623 -0.100207984 0.20712586 -0.09155675
0.0798125 0.023634525 -0.11203014 -0.018797595 0.047522373 0.069128335 0.17083351 -0.07849528
0.20804693 -0.065240726 -0.11999418 0.05802579 -0.11181407 0.020104237 0.068136275 0.16617878
0.12704507 -0.15944956 0.23559305 0.2532472 0.0847203 0.23918054 0.13724837 0.08120241
-0.15622301 -0.0045210985 -0.037637167 0.28595248 0.20904194 -0.06285025 -0.025717804 0.031142334
-0.06149958 0.26576716 0.06027848 0.19779228 -0.009073273 0.11299789 0.046778377 0.042907353
0.0027190072 -0.015585938 -0.18518208 0.123359285 0.046705544 0.23424697 -0.10220231 0.1825208
-0.14062946 0.1706459 0.2198426 0.24280158 0.05215388 -0.06899139 0.17916702 0.06290004
0.09344144 -0.13540313 -0.17830598 -0.12821603 0.0896706 -0.0026379128 0.14029431 0.073593214
0.19245586 0.012628795 -0.049077004 0.1641044 0.1480183 -0.028979562 -0.13136983 -0.07226509
0.113627955 0.052748684 -0.13123724 0.01725934 -0.090328336 0.20374042 0.18820462 0.100244954
0.012176801 0.0011638557 0.0059798956 -0.11630071 0.07163776 -0.07684126 -0.010417119 -0.027776066
-0.07277192 0.07659293 0.060578328 -0.003763021 0.102162115 0.23299752 0.16814066 0.10913025
0.011976925 0.25424302 -0.015280192 0.20963022 0.08185372 0.14728712 0.29310447 0.027215928
0.1594928 -0.026306778 -0.16254942 0.164481 0.04207407 0.005181007 0.28566468 0.26387712
-0.13242811 -0.08095163 -0.0049241288 0.092305124 0.1925325 0.022603203 0.13387239 0.11508392
-0.08843377 0.14236891 -0.10045836 -0.00025018092 0.20529215 -0.022432182 -0.054804258 -0.08380155
-0.1005181 -0.026916048 -0.027580217 0.031535733 0.10728688 0.059139024 0.037973907 0.01811381
-0.0052403947 0.055707432 0.18427013 -0.036256537 0.097686104 -0.036162574 -0.03458192 0.25317445
0.09091742 -0.1562974 0.2572452 0.124822624 0.18321852 -0.037525777 0.1534608 0.19154847
-0.07771552 -0.061511897 0.033168823 0.18097359 0.11915176 -0.00595288 -0.07283945 -0.02483134

l1.bias f4 [64]
00000000: f914 8e3e 8835 743e b655 2b3e aa78 9b3d
00000010: b51c 143d 6771 ac3d c242 1a3e 4ace 253e
00000020: 94a1 6a3e 5b5b 883e 1f1c 8e3e e9c0 123e
00000030: f672 983d c1e8 3d3e 7419 0e3e 5aec 763e
00000040: c313 793e 47a0 2d3e 8270 be3d 0a67 953e
00000050: e76b 5d3d 5c36 033d a45d ca3d 9fd4 bd3d
00000060: 5054 d83d b7a3 e63c 2399 193e 9c0b 343e
00000070: 547d 733e 5d6a 6c3e ad7b 763e 3a51 813e
00000080: 429c 923e e74a 883e e25c 4f3e 1878 393e
00000090: 304f 873e 6457 3a3e c4f1 633e aa30 453d
000000a0: 082a d03d 5519 013e 3264 663e 638e 9d3d
000000b0: 5819 903e 1cd7 133e 23c2 a63d 0d97 a03d
000000c0: 2040 ad3d ae03 8f3e 99b3 233e 13d0 ef3d
000000d0: 2ed0 873e aa97 453e 6c6c 2d3e c807 233e
000000e0: 24fc 593e 76df 883e 1156 563e 9812 f63d
000000f0: e28e 473e 7ef3 3bbc 30fb 873e d189 3e3e
0.27750376 0.23848546 0.16731915 0.07591374 0.03616019 0.08420067 0.15064529 0.16191974
0.229132 0.266322 0.2775583 0.14331402 0.07443802 0.1854582 0.13876897 0.24113598
0.24323945 0.16955672 0.09298803 0.29180175 0.05405798 0.032034263 0.09881142 0.0926907
0.10562956 0.028154237 0.14999823 0.17582554 0.23778278 0.2308745 0.24070616 0.25257283
0.2863484 0.26619646 0.20250276 0.18112218 0.26427603 0.181974 0.22260195 0.048142113
0.10164267 0.1260732 0.22499159 0.07693174 0.28144336 0.14437526 0.081424974 0.07841311
0.084594965 0.27932495 0.1598648 0.11709609 0.26526016 0.19296136 0.16935891 0.15920937
0.2128759 0.26732987 0.20931269 0.12015265 0.19488099 -0.011471627 0.26558828 0.1860726

l2.weight f4 [64, 64]
00000000: 6df4 143d df15 453e b37f 893e 8d61 90bd
00000010: 8e0e 043d c8b7 76be b310 efbd 61b4 433d
00000020: 1ef3 8a3e f2be 623c 4740 763d a6fb d0bc
00000030: 2384 17be 3da1 c73d 3a4e 063e 1385 873e
00000040: e722 71bd 6c84 3ebe 3768 163d 965b e6bb
00000050: 0176 18be 023b 57be d559 64be ed3b 3e3e
00000060: 79c5 c03d 1349 85be e81e c2bd 03a7 3f3e
00000070: ef0d a83d 1ff7 7b3e 4d6c 363d f78a 8a3e
00000080: 7ec0 d33d c50e 833e 8277 bb3c 9641 2fbd
00000090: b5fd 023e 9cc2 5bbe 969a 843e 94d0 2dbe
000000a0: df7d 85be 9b7e 933e 1794 df3c c1c9 b93d
000000b0: ab25 08bd 4173 e7bb aa70 ffba 87e3 6f3e
000000c0: 4b27 0e3e 5c3a 033e f714 32bd 4066 2abe
000000d0: 4fe9 113e 1506 673e 2bb1 bc3c 4d8f df3d
000000e0: 5b55 183e ce16 ae3d daab 803d feac b53b
000000f0: ee26 3dbe 1768 8f3d 984d 2b3e 64d6 583e
00000100: 85c3 4a3e 07dc 2dbd ecfe a03d 8c8e 93bc
00000110: 602d 1e3e 0c4a 883d d606 043d c711 733d
00000120: c89b 203e 2bff eabd ab79 82bd 6e36 61be
00000130: d278 563e 91f7 623d 4d24 633e 86cb 213e
00000140: 8d74 a13d 34b1 3f3e 8c5e 56be 4973 2c3e
00000150: a408 0fbe 0295 59be 7f9e eabd 21ba a7bd
00000160: bb4c c7bc 1bfe efbc 4554 d63d a09c 1c3d
00000170: d2cb 22be fb21 cb3d c7a8 503d 1a25 523e
00000180: 1989 c03d 8159 61bb 7bbb 8d3b 1002 ae3d
00000190: 6eca 0e3e 4d87 2a3e 2529 663e e25c d5bd
000001a0: 62da dcbd 131b 5b3e df0d 063d 08c2 a4be
000001b0: 1698 81bd 76d9 0c3e 749a aebd 52b0 14be
000001c0: 214d 223e 48e4 22be 6126 853d 29e4 07be
000001d0: 1619 fb3d b5b2 8abd 34c5 883d 1def 17be
000001e0: 5217 183e 900f c53d ce54 143e 2f7a 13be
000001f0: fe2a 183e 1fba df3c a376 63bd c39a ac3d
00000200: fe9d 13be ceb4 503e d474 123e 5868 80be
00000210: 898a 0dbe 7cbf 16be cf4e 313e 8f43 863d
00000220: 037d 6f3d c934 033d 1391 b63c 18a8 0d3e
00000230: bc6c b33c 1230 853e a833 683e 21e3 5f3e
00000240: 1f2a 073e 4b37 41bc f965 46be 2879 333e
00000250: fe80 3fbd 0dcf 4cbe c0ed 4b3e c531 813e
00000260: 57e8 fa3d b524 07be 1bb0 5dbe 4663 0d3e
00000270: 51cf 353e 7ea6 55bd 38e6 57bc 2223 f83d
00000280: 0274 643e 9ecc 833e 0efe f1bc 502c 17be
00000290: 81de 933d 1446 55be bdd2 843e c489 3bbd
000002a0: 719b 1c3e 84d3 963d 3457 a7bc 8d83 6e3e
000002b0: 3b9b 253e 61d6 94bd 0750 32be 7c7c 1c3e
000002c0: bcfb 2dbe ce1a fd3d c30e 763c 8642 1ebd
000002d0: c78a 193e 371d 293e 9bee a9bd 5e8c 593e
000002e0: 3271 dbbc c90d 273d 2ee9 513d 69b3 6b3c
000002f0: 9952 87be a338 1ebe 42ad 243c 7591 aebd
00000300: 0a75 823c be50 e4bd edec 5f3e 5c5e 7f3d
00000310: dfca 29be 7cef 6c3e 867f 1b3d 2e09 133d
00000320: cb4f f9bd a4fd 553e af27 5a3e 9252 993d
00000330: 70cf b83d 2491 7fbe d980 1cbd 9ed3 d4bd
00000340: 8666 4a3e 3e41 64be bec9 593e 33d1 b7bc
00000350: cf28 993e 39e5 7d3e 1e38 033e aed5 09be
00000360: 8172 fe3c ed72 b73d 0532 263d 11cc 0c3e
00000370: ee28 4abe 3134 c93d dc72 76bb 84f6 14be
00000380: 63df 4c3e 00fd 48be ed8e 873e ce87 743e
00000390: 4005 c8bd e0de 5a3e 3406 2dbe 4dda 193e
000003a0: 75cb 473d 7e0d 9cbe 4687 833d d2fd 513e
000003b0: 1e07 85bd 1fef be3d 2412 4a3e 15ae f8bd
000003c0: 64e9 f4bd 90b8 f73d e78f 103e 754d 4b3e
000003d0: 368a a23c 6dd9 103d 99a8 3a3e 12cc 213e
000003e0: 0dfb a73d 61db a9bd efad 81bd eef7 513e
000003f0: 7983 68be 06e5 14be 4e49 a0bd f0f5 b8bc
0.036365915 0.19246624 0.2685524 -0.07049856 0.032240443 -0.24093544 -0.11673107 0.047779445
0.2713861 0.01383947 0.060119893 -0.02551062 -0.147965 0.09747551 0.13115779 0.26468715
-0.058871176 -0.18605202 0.03672048 -0.007029961 -0.14888765 -0.21018603 -0.22299893 0.18577547
0.09412665 -0.26032314 -0.09478551 0.18716054 0.082057826 0.24605988 0.044536877 0.27059147
0.10339449 0.25597206 0.022884134 -0.042787157 0.12792094 -0.21460956 0.2589919 -0.16974097
-0.26072595 0.2880753 0.027292294 0.09071685 -0.033239048 -0.0070633 -0.0019488533 0.23426639
0.13882177 0.12815231 -0.043477025 -0.16640568 0.14249156 0.22560914 0.023033699 0.10916004
0.1487631 0.085004434 0.06282778 0.005544304 -0.18471882 0.070022754 0.16728818 0.21175534
0.19801147 -0.042446163 0.078611225 -0.018012308 0.15446997 0.06654748 0.03223308 0.059343126
0.15684426 -0.11474451 -0.063708626 -0.2199342 0.20944527 0.05541188 0.22181816 0.15800294
0.078835584 0.18719941 -0.20934504 0.16840853 -0.1396814 -0.21248248 -0.11456012 -0.08189798
-0.02432858 -0.029295972 0.10465292 0.038235307 -0.15898064 0.09918591 0.05094221 0.20521966
0.09401149 -0.0034385624 0.004325328 0.08496487 0.13944408 0.16653176 0.22476633 -0.104181066
-0.10783841 0.21397047 0.032728072 -0.32179284 -0.06327836 0.1375483 -0.08525553 -0.14520386
0.15849735 -0.15907395 0.06501461 -0.1327063 0.12260644 -0.06772367 0.066782385 -0.14837308
0.14852646 0.09622109 0.14485475 -0.14402078 0.1486015 0.02731043 -0.055533063 0.08427956
-0.14415738 0.20381472 0.14302379 -0.25079608 -0.13822378 -0.14721483 0.1731522 0.065558545
0.05846883 0.03203276 0.022285974 0.13833654 0.021902435 0.26013237 0.22675955 0.21863987
0.13199662 -0.011792968 -0.19374837 0.17526686 -0.046753876 -0.20000859 0.19914913 0.25233284
0.122513466 -0.13197596 -0.2164921 0.13807401 0.17754866 -0.052160732 -0.013177447 0.12116076
0.22309878 0.25742048 -0.029540088 -0.14762998 0.072201736 -0.20827514 0.2594203 -0.04578568
0.15293671 0.07364562 -0.020427324 0.2329237 0.16172497 -0.07267452 -0.1741334 0.15281862
-0.1699056 0.12358628 0.015018168 -0.03863766 0.14994346 0.16515051 -0.082974635 0.21244952
-0.026787374 0.04078463 0.051247768 0.014386036 -0.26430205 -0.15451293 0.0100510735 -0.085238375
0.01592495 -0.11148213 0.21867724 0.062345847 -0.16581295 0.23138231 0.037963413 0.035897426
-0.121734224 0.20897537 0.213042 0.07486452 0.090239406 -0.2495771 -0.038208816 -0.10391925
0.19765672 -0.22290513 0.21268365 -0.022438621 0.29913947 0.24794473 0.12814376 -0.13460419
0.03106046 0.08957467 0.040575046 0.1374972 -0.19742176 0.09824408 -0.0037605083 -0.14547163
0.2000709 -0.19627762 0.2647623 0.2387993 -0.09766626 0.21374083 -0.16896898 0.15024681
0.048778016 -0.30479044 0.06422286 0.20506981 -0.06495498 0.093229525 0.19733483 -0.121425785
-0.11958578 0.120957494 0.14117394 0.19853766 0.019841295 0.035363603 0.18228377 0.15800503
0.08202181 -0.08293796 -0.06332003 0.20504734 -0.22706403 -0.1454049 -0.07826482 -0.02257821

l2.bias f4 [64]
00000000: 62e1 453e 293e 023e c5d8 2a3e 8b2e d5bd
00000010: 8f68 ac3d ac2c c33d 9ff6 ae3d 5975 5bbd
00000020: 34d0 053e 04fe ab3d 0985 2b3d a422 a939
00000030: 04de cc3d 0613 063e 3593 2e3e e0d6 f2bb
00000040: c599 873d 7c5b bf3d 790d 29bd 68c8 423e
00000050: cbf7 ef3c 56ac 9f3d 146c 6139 fa61 333c
00000060: 0a67 e63d 3397 8d3d 70bb 853d 7757 97bd
00000070: 5c80 c3bd 6697 013d a3a6 273c 5de9 2d3c
00000080: e221 67bc 3b95 723d 73aa f6bd bb8a 69bc
00000090: 9dbb ac3d 7006 88ba cec4 e7bd b24c dfbc
000000a0: 2015 5a3c 0c66 4b3e 1524 0e3e 751a f13d
000000b0: 64f3 3c3e 2786 573e d894 033e d29e 3d3e
000000c0: 4e32 703e 38f2 f23d 36d2 363e bc39 253e
000000d0: eb63 9abd 0d4b 2d3e ae01 c73d 8a41 7cbd
000000e0: 5c68 2dbe 808f 653e e9a4 0d3e ea97 c5bd
000000f0: 9c17 673e ba3a 943d 2695 153e 0c8f 773e
0.19324258 0.12719025 0.16684254 -0.10409268 0.084183805 0.09530005 0.08543133 -0.05357871
0.13067704 0.08398059 0.04187492 0.0003226 0.100032836 0.13093194 0.17048343 -0.007410869
0.06621126 0.09343621 -0.041272614 0.19021761 0.029292962 0.07796542 0.00021497934 0.010948652
0.11250122 0.069136046 0.065298915 -0.073897295 -0.09545967 0.031638525 0.0102326 0.01061472
-0.014107199 0.05922435 -0.12044229 -0.014254267 0.08434222 -0.0010377895 -0.113168344 -0.02725825
0.013310701 0.19863147 0.13880952 0.117726244 0.18452221 0.21047269 0.12849748 0.18517616
0.2345669 0.11862606 0.17853627 0.16135305 -0.07538589 0.16923161 0.09717117 -0.06158594
-0.16934341 0.22418022 0.1383244 -0.09648116 0.225676 0.07237764 0.14607677 0.24175662

l3.weight f4 [7, 64]
00000000: 18d5 acbb 5ac7 57be 3b8a 9bbc 600a 353e
00000010: a158 e2bd 82ac 46be 369e 45be 87fb 093e
00000020: 2b6c 1fbe 6e15 7a3e 0b45 903c 582e f6bd
00000030: 8ac2 15be b33d 7cbe f75f 04bd f040 07bd
00000040: d922 43be 68e7 443e 94e6 2cbe 40e1 8abe
00000050: a025 4e3e 7ed2 0f3e 40b5 133e a06a 3a3e
00000060: cb0a 4fbe 4b34 92be ec99 373e d88b e0bd
00000070: 10c4 493d 2c3d 3fbe ee4b 46be 9d98 a0be
00000080: f649 abbc ca12 3abe 2fc8 e9bd 5402 4fbe
00000090: 67fc 413e 08f0 95bd 5cf9 e0bd a9ab 273e
000000a0: 07fa 1b3e 7b68 06bf 3613 a3bd 3565 1f3e
000000b0: eead 87be 1780 4f3e 694b 2e3e 4e30 ab3d
000000c0: cb93 61be c1ba 2f3e 6070 ebbc 6490 583e
000000d0: c5db 0ebe 456d 7a3d 66ac 603c 07f1 823b
000000e0: 4bde 553e f512 7cbe 4e5d 4abe be1b 9b3d
000000f0: cee7 76be a3db 433e b065 943d 939a 57be
00000100: 61b5 86be ea15 6c3e 7ad6 06be 6315 e0bd
00000110: a69d b8bd 4a1b e43d f392 3fbe 7899 463e
00000120: 6f8c 303e 7239 80be 4c20 733e 74ac 8f3e
00000130: d895 733e 2800 adbd a8b5 46be 78c2 fdbc
00000140: 489b 3bbe c231 2d3e 197a 14be e38b 1b3d
00000150: b68e 2bbe 8049 75be 9a37 6e3e 5e2a 203d
00000160: fc25 7f3e 1426 07be adea 7c3e f1f0 26bd
00000170: be3e 8e3d e3c8 303e 13e5 043e bb32 c6be
00000180: 87b2 0b3c 4bca 65be 7b17 2abd 68d8 46be
00000190: cfbc 023d eba9 6fbd 42d9 a4bd 9e7e ea3c
000001a0: bcf3 1abe 8b70 15bf 06aa 623e 9621 59be
000001b0: b465 6ebe f225 79be 36ac 703e b8c4 693e
000001c0: ee16 dc3d 29a6 6e3e cda1 563e 1e3b 283e
000001d0: e4bb 46be 9544 45be 659e 72be fb55 f93d
000001e0: c317 80be 89bc 6ebe eb5a 17be b0da bb3c
000001f0: a696 6a3e 428e 81be 6583 133d 6fcf 7ebe
00000200: 1918 e8bc d720 1b3e a583 773d 1eec 98be
00000210: 1c95 823e b1ec 5c3e d13f 21bd e08c c1bd
00000220: 2851 4dbe df1a 853e 97e8 8dbe d47f 91be
00000230: d1ca 273e e17e eb3d a4e4 e73d 42e9 dc3d
00000240: 2b7e 9fbe 7629 313e b9ca 73be 44f6 483c
00000250: bb1d 983e 9611 96be d9cb abbe 8ebe 35be
00000260: 8fa9 66be ad2a a83e a186 6fbd e7c5 473d
00000270: b0f7 693d ee48 8cbe 8791 843e 8f93 993e
00000280: 0152 9bbd 43a5 a8bd 499c 223d 6f51 2e3d
00000290: 6784 433e 445f a4be b2e6 d13d 5941 d23d
000002a0: 6f7f 8ebe 8dbb 11bf c575 73be feb5 153e
000002b0: 70dd 4b3e 6c16 403e 2417 88be cafe 56be
000002c0: a269 09be 16a7 05be bab3 7bbe abb8 3e3e
000002d0: a77f 94be 4a48 62bd e5e3 9abd 5253 5abe
000002e0: 323e 6abe 540a 393e 5ade 8d3e 124d 833d
000002f0: 4fa7 90be 107d 003e 1ac2 0ebd fd98 463e
00000300: a734 023e 71f9 403e c999 463e ad6c 79be
00000310: 46f5 8e3e 4c52 02be 77b2 7b3e 76ea 33be
00000320: 2b22 65be a203 7abe 23a9 8e3e 6c4c 46be
00000330: 11dc 91be 8c4c 56be 53dc 6e3e c010 f63d
00000340: d886 0e3e 1bae 4fbe c2c6 8c3e 134d 5ebe
00000350: d816 87be 2cb1 943e 45c2 fcbd 1bff 2dbe
00000360: de80 243e 0fc4 adbe 0837 0abe 0d5d b5bc
00000370: 9848 c1bd 9444 27be 5196 0abe fec9 883e
00000380: 4016 f83d fbb4 49be 91b3 e63d c875 69be
00000390: 37ef 86be 9393 6f3e 20d4 533d b03e 25be
000003a0: 7078 8e3e 255e d83e 43d3 25be daf0 863e
000003b0: b190 3a3e c6bd f83d 07d6 f3bd 165c 583e
000003c0: f2bf 3abe a2f2 da3d b0c0 8f3e 2c8b 3ebe
000003d0: c74f 7cbe cf04 233e 08bf 60be 4fb3 9e3e
000003e0: f34f 74be 7759 b03d 546f 9abe 6271 d83d
000003f0: 9d70 d8bc ee61 97be 7234 af3d 465e 5f3e
-0.005274426 -0.2107214 -0.018986812 0.17679739 -0.11052061 -0.19401744 -0.19298634 0.13474856
-0.15568607 0.24422237 0.017611047 -0.12020558 -0.14624992 -0.24632911 -0.03231808 -0.033020914
-0.19056262 0.192289 -0.16884834 -0.27124977 0.2013154 0.1404514 0.1442461 0.18204737
-0.20218961 -0.2855552 0.1792981 -0.10964173 0.049259245 -0.18675679 -0.19364902 -0.31366435
-0.02090929 -0.1817123 -0.11415135 -0.20215732 0.1894394 -0.07321173 -0.109850615 0.16374077
0.15232097 -0.52503175 -0.079626486 0.15565951 -0.26499885 0.20263706 0.17020954 0.08358823
-0.22029035 0.17161085 -0.028740108 0.2114883 -0.13951023 0.061139364 0.013712978 0.003996018
0.2088558 -0.24616607 -0.19762155 0.07573651 -0.24111864 0.19126754 0.07245958 -0.21055059
-0.26310256 0.23055235 -0.13167754 -0.10941579 -0.09014444 0.111380175 -0.187084 0.19394481
0.17241071 -0.25043827 0.23742789 0.2806126 0.2378763 -0.084472954 -0.19405234 -0.030976519
-0.18320954 0.16913512 -0.14499702 0.037975203 -0.16753659 -0.2395382 0.23263398 0.039102904
0.24916834 -0.1319812 0.24698897 -0.040757123 0.06945561 0.17264132 0.1297801 -0.3871058
0.008526451 -0.2244045 -0.0415263 -0.1941849 0.031918343 -0.058511656 -0.08049251 0.028624829
-0.1513204 -0.5837485 0.22135171 -0.21204218 -0.23280984 -0.24330881 0.23503193 0.22828948
0.10746561 0.23305573 0.2096016 0.16428801 -0.19407612 -0.19264443 -0.23693235 0.121746026
-0.2501813 -0.23314108 -0.14780776 0.022931427 0.2290903 -0.25303847 0.03601398 -0.24883817
-0.028331803 0.15149246 0.06042828 -0.29867643 0.25504386 0.21574666 -0.0393675 -0.09450698
-0.2005049 0.25997064 -0.27716514 -0.28417838 0.16385962 0.114988096 0.113229066 0.10786678
-0.31150946 0.17300972 -0.23807801 0.012265746 0.29710183 -0.29310292 -0.3355396 -0.17748472
-0.22525619 0.3284506 -0.058478 0.04877272 0.05712098 -0.2739939 0.2589228 0.2999539
-0.075840004 -0.08234646 0.039699826 0.04255813 0.19093476 -0.32103932 0.1024908 0.1026637
-0.278316 -0.56926805 -0.23775394 0.14620206 0.1990869 0.18758553 -0.26580155 -0.20995632
-0.13419202 -0.1305202 -0.24580279 0.18625133 -0.2900364 -0.05524472 -0.07562999 -0.21320847
-0.22875288 0.18070346 0.27708703 0.06411184 -0.28252646 0.12547708 -0.03485308 0.19394298
0.12715398 0.18845154 0.19394602 -0.24357863 0.27921504 -0.12726706 0.24579798 -0.17569908
-0.22376315 -0.24415448 0.27863416 -0.1936509 -0.2848821 -0.20927638 0.23326235 0.120149136
0.13918626 -0.2028126 0.2749539 -0.21709089 -0.26384616 0.2904142 -0.123417415 -0.16991846
0.16064784 -0.33938643 -0.13497555 -0.022139097 -0.09437674 -0.16334754 -0.13533904 0.26716608
0.12113619 -0.19697945 0.11264718 -0.22798836 -0.2635438 0.23396139 0.05171597 -0.16137195
0.27826262 0.42259327 -0.16193871 0.2635563 0.18219258 0.121455714 -0.11906057 0.21128878
-0.18237284 0.1069081 0.28076696 -0.18607777 -0.24639808 0.15919803 -0.21947873 0.30996177
-0.23858623 0.08610814 -0.30163062 0.10568501 -0.026420886 -0.29566902 0.08554925 0.21813306

l3.bias f4 [7]
00000000: 508b 44be 1590 04be d895 e83d 74e3 523b
00000010: c88e 7fbe 4134 bdbc b015 3b3c
-0.19193769 -0.12945588 0.113567054 0.003217903 -0.2495681 -0.023096206 0.011418745
