data.pth (torch, 35199 bytes, 6 tensors)

l1.weight f4 [64, 54]
0.035063047 0.18473534 -0.13431911 -0.02100052 -0.06935314 -0.038939502 0.0031252287 -0.14041314
-0.13163365 0.098853506 -0.0018546737 -0.045401867 0.13742629 0.0994211 0.06902631 -0.06488946
0.04938008 -0.108820885 0.21366493 -0.07645923 0.058021165 -0.065013975 -0.10730101 0.078760006
0.07999078 -0.111077964 0.25673053 0.06287418 -0.08618179 0.10504267 -0.13044378 -0.13328084
-0.17878838 -0.050061442 0.17653804 0.086195625 -0.08042069 -0.08188662 -0.105466835 -0.0756185
0.006545007 -0.09186761 -0.06986437 0.059461374 -0.14314017 0.28597692 -0.03873528 -0.115579836
-0.12772828 -0.10477575 -0.05009369 0.1852555 0.059229642 0.008222856 -0.06545112 0.09074686
0.15847151 -0.18992247 0.007895283 0.1848951 -0.024526294 0.0687932 0.0051579615 -0.06680074
-0.0030837134 -0.09439632 0.11921479 -0.0705975 0.021171346 -0.15085328 -0.022295218 0.35679492
-0.02973299 -0.10393615 -0.0761131 -0.20555484 -0.14280263 -0.063117474 -0.035326917 -0.18927434
0.1990423 0.1343191 0.05604132 0.2354469 0.12579197 0.044649962 -0.013511906 0.1159232
0.19537972 -0.06785934 0.00097875 0.13977234 0.07650781 0.0074062967 0.072228044 0.048257362
-0.09224713 0.26714492 -0.024243662 0.23805633 -0.20554772 -0.109229006 0.21539198 0.16101547
0.023645477 0.17423327 0.117235914 0.16897404 0.19966933 0.19352886 -0.018851334 0.055958718
-0.118613645 -0.13468017 0.18015155 0.19616222 -0.10679653 0.21826854 -0.0654379 0.08284283
-0.086623855 0.09527703 0.12839408 0.014890432 -0.0701109 -0.13277172 -0.048029017 -0.12589033
0.014920106 -0.1346832 -0.02659951 0.10029002 -0.010383356 -0.14837115 -0.08889805 0.2037739
-0.068987444 0.1117092 -0.109133124 0.10173356 0.18178567 -0.02456254 0.22163838 -0.10461743
0.11797032 -0.118851975 0.10435975 0.11170762 -0.16195688 -0.034931365 0.17208163 0.18197046
0.22730386 0.06093051 0.2678451 -0.031399004 -0.042261876 -0.20050026 -0.062983505 -0.109877735
-0.01395917 0.19875237 0.12577574 -0.10246429 -0.10970735 0.070763715 -0.020228216 0.12026826
-0.091774784 -0.062240295 -0.14817071 -0.051982313 0.17498551 -0.104656495 -0.19902584 0.027104085
-0.1284947 -0.032946907 0.10701725 0.36508578 -0.09567194 0.00095120305 0.17032959 0.19816726
0.12940057 0.19320741 -0.085582234 0.28780594 -0.12159953 -0.090409674 -0.1350737 -0.009063776
0.27824965 -0.13234265 0.04398164 -0.09219396 0.11649105 -0.13059938 -0.06655083 -0.042928774
-0.108459964 -0.1047313 0.10057815 0.0024970735 -0.116399616 -0.09978156 -0.1409856 -0.08488677
0.14736262 0.086973436 0.068461 -0.20442666 0.0424304 0.015195172 -0.08916555 0.24331309
0.045785032 -0.10323044 0.23735559 0.14111042 0.18789889 0.15775406 0.25203988 0.20963852
0.20239565 0.23726358 0.16894713 0.16554357 0.0017064979 0.22604221 0.042873602 0.058496647
-0.060476188 0.15636942 -0.041396737 -0.048002914 -0.15137134 0.124946 -0.0747558 0.10461446
0.21810225 0.24218792 -0.108638704 0.15778099 -0.16123542 -0.055807576 0.13094868 0.13774166
0.007357418 0.02458086 0.08417114 0.03398344 -0.015164682 0.1563688 0.15776126 0.036309756
00000000: 459e 0f3d 432b 3d3e f38a 09be 4809 acbc
00000010: 0509 8ebd 077f 1fbd a3d0 4c3b 76c8 0fbe
00000020: f9ca 06be b573 ca3d 8618 f3ba 4ff7 39bd
00000030: 7ab9 0c3e 4a9d cb3d ab5d 8d3d c4e4 84bd
00000040: c442 4a3d 7cdd debd fbca 5a3e a896 9cbd
00000050: 9aa7 6d3d 0c26 85bd a2c0 dbbd ed4c a13d
00000060: 35d2 a33d d87c e3bd 2f72 833e 2ec4 803d
00000070: 1480 b0bd 9d20 d73d 0e93 05be c67a 08be
00000080: 4d14 37be 3a0d 4dbd 63c6 343e 5587 b03d
00000090: 9ab3 a4bd 2cb4 a7bd fffe d7bd dfdd 9abd
000000a0: 8077 d63b 1625 bcbd 0d15 8fbd c58d 733d
000000b0: 5693 12be 916b 923e e3a8 1ebd 1fb5 ecbd
000000c0: 34cb 02be ab94 d6bd 0b2f 4dbd 9eb3 3d3e
000000d0: c89a 723d 28b9 063c 3d0b 86bd 7dd9 b93d
000000e0: 5b46 223e 097b 42be 385b 013c 2455 3d3e
000000f0: 5eeb c8bc 73e3 8c3d 1e04 a93b d4ce 88bd
00000100: 2018 4abb dc52 c1bd e226 f43d 6c95 90bd
00000110: 886f ad3c 4879 1abe 76a4 b6bc d3ad b63e
00000120: 9992 f3bc 7adc d4bd 2fe1 9bbd f87c 52be
00000130: da3a 12be bc43 81bd f5b2 10bd 22d1 41be
00000140: bfd1 4b3e f28a 093e 958b 653d fe18 713e
00000150: 9ccf 003e e1e2 363d 0b61 5dbc 2569 ed3d
00000160: 9f11 483e d6f9 8abd 6649 803a 7b20 0f3e
00000170: 20b0 9c3d 85b0 f23b 4cec 933d 83a9 453d
00000180: 10ec bcbd 38c7 883e a59a c6bc 0ac5 733e
00000190: 1a7b 52be 75b3 dfbd b78f 5c3e 3de1 243e
000001a0: 29b4 c13c 356a 323e 6219 f03d 8807 2d3e
000001b0: 1e76 4c3e 6e2c 463e 1d6e 9abc f834 653d
000001c0: b6eb f2bd 99e9 09be a679 383e c0de 483e
000001d0: 24b8 dabd ca81 5f3e 4e04 86bd 80a9 a93d
000001e0: d967 b1bd 9a20 c33d bd79 033e 00f7 733c
000001f0: 4e96 8fbd 4ff5 07be 13ba 44bd 65e9 00be
00000200: 7673 743c 65ea 09be 37e7 d9bc db64 cd3d
00000210: f41e 2abc 9bee 17be 2e10 b6bd 1baa 503e
00000220: 4a49 8dbd cbc7 e43d 3081 dfbd af59 d03d
00000230: 0626 3a3e 6137 c9bc 2cf5 623e aa41 d6bd
00000240: 6c9a f13d aa68 f3bd 91ba d53d f7c6 e43d
00000250: 06d8 25be 3114 0fbd 2b36 303e 7756 3a3e
00000260: 58c2 683e 4592 793d fe22 893e 3e9c 00bd
00000270: ca1a 2dbd f14f 4dbe 7ffd 80bd 9407 e1bd
00000280: 01b5 64bc be85 4b3e 5bcb 003e ccd8 d1bd
00000290: 3fae e0bd 91ec 903d a5b5 a5bc 354f f63d
000002a0: 6bf4 bbbd aeef 7ebd 10ba 17be 68eb 54bd
000002b0: 672f 333e 2556 d6bd 6ecd 4bbe 6309 de3c
000002c0: 1d94 03be 56f3 06bd dc2b db3d 86ec ba3e
000002d0: a6ef c3bd 285a 793a e16a 2e3e 5cec 4a3e
000002e0: 9581 043e 2ad8 453e bd45 afbd 4d5b 933e
000002f0: 2d09 f9bd b528 b9bd c350 0abe 3b80 14bc
00000300: bd76 8e3e d584 07be 1826 343d 30d0 bcbd
00000310: dc92 ee3d d8bb 05be cd4b 88bd 15d6 2fbd
00000320: 4220 debd 5d7d d6bd ebfb cd3d f1a5 233b
00000330: ec62 eebd 465a ccbd 875e 10be 1dd9 adbd
00000340: 3ae6 163e 211f b23d 4835 8c3d 3955 51be
00000350: 80cb 2d3d 2cf5 783c 6e9c b6bd 1127 793e
00000360: 1689 3b3d 7b6a d3bd 580d 733e 407f 103e
00000370: 9168 403e 488a 213e 5f0b 813e 7bab 563e
00000380: ce40 4f3e 39f5 723e 7a00 2d3e 4184 293e
00000390: 91ac df3a 9c77 673e 3b9c 2f3d 2e9a 6f3d
000003a0: e1b5 77bd 4e1f 203e a08f 29bd b49e 44bd
000003b0: 1701 1bbe b0e3 ff3d 9219 99bd 1b40 d63d
000003c0: 3256 5f3e 1c00 783e f87d debd 5791 213e
000003d0: e61a 25be 7c96 64bd 6917 063e 260c 0d3e
000003e0: 7f16 f13b cd5d c93c eb61 ac3d 3832 0b3d
000003f0: 4975 78bc 251f 203e 2b8c 213e 8ab9 143d

l1.bias f4 [64]
0.03872839 0.2055478 0.13468502 0.1576393 0.20309678 0.2676049 0.030787688 0.09773235
0.23877084 0.11750958 0.111257076 0.08947772 0.031937163 0.20532635 0.24994935 0.17448409
0.21872352 0.007130687 0.22362342 0.19088665 0.006887039 0.04953996 0.29732805 0.25708592
0.100616425 0.13316225 0.1674342 0.10925201 0.20635702 0.061515626 0.22351764 0.095680885
0.0496024 0.03605889 0.14716901 0.07395207 0.23783621 0.006402776 0.15306689 0.05418789
0.11032002 0.1304443 0.07269702 0.048949778 0.24032943 0.14157814 0.18116228 0.12055855
0.19831192 0.026117235 0.12254458 0.087733805 0.28331715 0.027238574 0.059826337 0.15738723
0.19106627 0.1408704 0.16042638 0.19082525 0.19046393 0.12717149 0.13602965 0.20238818
00000000: a9a1 1e3d 1f7b 523e dfea 093e 326c 213e
00000010: 9af8 4f3e 8203 893e 7636 fc3c e627 c83d
00000020: 5880 743e dda8 f03d c0da e33d 1840 b73d
00000030: 8bd0 023d 1241 523e b9f2 7f3e f5ab 323e
00000040: 0ff9 5f3e 8aa8 e93b 8afd 643e ca77 433e
00000050: acac e13b 6aea 4a3d 623b 983e c4a0 833e
00000060: fc0f ce3d af5b 083e df73 2b3e 85bf df3d
00000070: 414f 533e cff7 7b3d cfe1 643e 57f4 c33d
00000080: e32b 4b3d 7db2 133d 79b3 163e 2f74 973d
00000090: 568b 733e 61ce d13b 91bd 1c3e 1ff4 5d3d
000000a0: 76ef e13d 3193 053e 2de2 943d 907f 483d
000000b0: eb18 763e dcf9 103e 9b82 393e 67e7 f63d
000000c0: 4812 4b3e d0f3 d53c a7f8 fa3d c8ad b33d
000000d0: f20e 913e 6e23 df3c 760c 753d 1e2a 213e
000000e0: e0a6 433e 5540 103e d046 243e b267 433e
000000f0: fa08 433e 3e39 023e 5b4b 0b3e d93e 4f3e

l2.weight f4 [64, 64]
0.038452778 -0.05226073 0.18143988 -0.056503512 0.097814456 -0.10878149 0.056675725 -0.08086366
0.15206344 -0.054397438 -0.0140685225 0.08384204 0.17410733 -0.012432117 0.18255427 -0.2241149
0.14158146 0.072754666 0.12408706 0.2029347 -0.05474919 -0.071570836 0.06669618 0.1932681
0.20675866 -0.0060131806 0.18424685 -0.00096035405 0.1453585 0.16158853 -0.037175763 0.1960129
0.22208187 -0.20316122 0.03237801 -0.19774428 -0.07776136 -0.14320868 0.16497922 0.20868704
0.024197506 -0.037156858 0.05806803 -0.23240714 -0.28364676 0.03772291 0.22311056 -0.14239407
-0.11822262 0.15571737 0.15389271 -0.13051899 0.20455678 -0.16551617 0.22844435 0.059450705
0.16516364 0.102608375 -0.288864 -0.035738274 0.1668594 -0.021380242 0.15009199 0.061816275
-0.021509996 -0.0999117 0.10512779 -0.23108849 0.103307895 0.03527078 0.25144538 -0.2325983
0.20006119 -0.011483834 -0.025395505 0.013961143 0.1692309 0.07744597 0.19358924 -0.10780838
-0.13090162 -0.023883568 0.14879599 0.12011735 -0.20254098 -0.06129788 0.1302889 0.043805014
0.070035964 0.014313579 0.26215246 -0.037567146 0.18482344 0.14449102 -0.15674746 0.06433459
0.20833668 -0.09519035 0.13518351 -0.07766851 -0.1895492 -0.02167552 0.24550672 0.054722156
-0.060358588 -0.12916294 0.16053455 -0.08155428 -0.1885234 0.12891218 0.26575208 -0.12236235
-0.18581489 -0.10443431 0.16769105 -0.13674337 0.028872436 0.26115543 0.07433179 0.23404208
0.044080917 0.113921605 -0.121968925 -0.20516 0.23288795 0.040980227 0.13985601 -0.15668805
0.18549675 0.23721002 -0.28385562 0.3214668 0.15288419 0.22540496 -0.14142822 0.17953408
0.24290858 0.21609212 0.16274211 0.16307011 -0.27368602 0.20273156 -0.04211678 0.2412903
0.08033773 0.11750847 0.11771379 -0.08243329 0.041218445 -0.09840404 0.19891444 0.081447646
-0.13118996 0.0061634644 0.16785587 -0.16996884 0.1891198 -0.18321902 0.21079536 -0.12867913
-0.08460604 0.057835627 0.17949574 0.17720366 -0.11574133 0.009134425 0.23841096 -0.17055969
0.21329388 -0.10392584 0.046926785 0.12065815 -0.002414221 0.10241501 0.14901094 0.14907737
0.13620389 -0.059826065 -0.23728521 0.07586693 0.048199628 -0.07640445 -0.09384665 0.06193879
0.23915397 0.21891336 0.21511567 -0.1530284 -0.1416884 0.16113226 0.05553392 -0.13016744
0.09563102 0.20156294 0.20668654 -0.08466218 -0.00017877053 0.1750851 -0.025715074 0.18347539
-0.21951503 0.24256888 0.008823965 0.035643496 0.102883235 0.18336484 -0.093819946 0.11779999
0.13643561 0.109291635 0.18517336 0.061694358 0.22601356 0.05161666 -0.24366766 0.05411544
0.27732503 0.1989321 -0.26202202 0.21887936 0.17296024 -0.17080313 -0.0030183706 0.10928617
-0.15663087 0.06023792 -0.055512372 0.18132013 0.15630998 -0.01627062 -0.074161336 0.107894875
0.25696325 0.21978572 0.12138235 0.16182221 0.14233273 0.09804708 -0.23170197 0.03160333
0.13001625 0.27201313 0.115905 0.13755551 -0.22462672 0.04749299 0.06058677 0.06509971
0.1053263 -0.16981997 0.1144599 0.17635064 -0.124757305 0.0838807 0.16904522 0.15113631
00000000: a980 1d3d 590f 56bd 60cb 393e 3a70 67bd
00000010: f252 c83d d4c8 debd ce24 683d d99b a5bd
00000020: 85b6 1b3e d9cf 5ebd a97f 66bc 60b5 ab3d
00000030: 3149 323e 14b0 4bbc 82ef 3a3e 607e 65be
00000040: bbfa 103e 6600 953d 5b21 fe3d 1dce 4f3e
00000050: b040 60bd bb93 92bd 0298 883d 13e8 453e
00000060: 8bb8 533e 370a c5bb 35ab 3c3e 45c0 7bba
00000070: dcd8 143e 7777 253e 9d45 18bd 9bb7 483e
00000080: 6e69 633e 7f09 50be ce9e 043d 7a7d 4abe
00000090: 5941 9fbd 4ca5 12be 50f0 283e 0eb2 553e
000000a0: d939 c63c ca31 18bd bed8 6d3d 23fc 6dbe
000000b0: 263a 91be 5783 1a3d 1877 643e c0cf 11be
000000c0: b31e f2bd 6074 1f3e 0d96 1d3e c5a6 05be
000000d0: 5577 513e 127d 29be 51ed 693e 9582 733d
000000e0: a820 293e 5724 d23d fbe5 93be 4c62 12bd
000000f0: 31dd 2a3e 9e25 afbc b7b1 193e 1033 7d3d
00000100: bb35 b0bc 819e ccbd 3d4d d73d 76a2 6cbe
00000110: 1793 d33d 1878 103d 73bd 803e 402e 6ebe
00000120: d7dc 4c3e b126 3cbc 3c0a d0bc 47bd 643c
00000130: dd4a 2d3e fe9b 9e3d 423c 463e a4ca dcbd
00000140: 130b 06be 79a7 c3bc fa5d 183e 1600 f63d
00000150: e766 4fbe 7c13 7bbd 746a 053e e36c 333d
00000160: 046f 8f3d 8083 6a3c d938 863e 02e0 19bd
00000170: 5b42 3d3e 74f5 133e 6882 20be dbc1 833d
00000180: 3656 553e 29f3 c2bd 8c6d 0a3e ab10 9fbd
00000190: 2f19 42be dc90 b1bc 1d66 7b3e 5724 603d
000001a0: 913a 77bd 4a43 04be 2b63 243e ee05 a7bd
000001b0: 470c 41be 8e01 043e a810 883e 1d99 fabd
000001c0: 4246 3ebe a8e1 d5bd 34b7 2b3e 7406 0cbe
000001d0: e385 ec3c 2ab6 853e 443b 983d baa8 6f3e
000001e0: 318e 343d bb4f e93d d8ca f9bd 7715 52be
000001f0: 2e7a 6e3e e2da 273d 6a36 0f3e d572 20be
00000200: dcf2 3d3e 2fe7 723e 8655 91be 4c97 a43e
00000210: ac8d 1c3e 8fd0 663e 8fd2 10be c8d7 373e
00000220: 07bd 783e 4147 5d3e dea5 263e dafb 263e
00000230: 9320 8cbe dd98 4f3e a582 2cbd ce14 773e
00000240: 1c88 a43d 48a8 f03d ed13 f13d c9d2 a8bd
00000250: acd4 283d 0f88 c9bd 3ab0 4b3e 06ce a63d
00000260: a956 06be e3f6 c93b 69e2 2b3e 500c 2ebe
00000270: 9fa8 413e c49d 3bbe bdda 573e 76c4 03be
00000280: ee45 adbd 0de5 6c3d bbcd 373e e074 353e
00000290: ca09 edbd 8ea8 153c 0122 743e 33a7 2ebe
000002a0: b669 5a3e 12d7 d4bd 4d36 403d 9f1b f73d
000002b0: e837 1ebb f6be d13d 5396 183e bda7 183e
000002c0: 0879 0b3e 2d0c 75bd e5fa 72be 1f60 9b3d
000002d0: f96c 453d f079 9cbd ac32 c0bd 87b3 7d3d
000002e0: c7e4 743e d32a 603e 4847 5c3e 7ab3 1cbe
000002f0: c416 11be dbff 243e 8977 633d 9d4a 05be
00000300: 32da c33d 8466 4e3e a3a5 533e 5d63 adbd
00000310: 5974 3bb9 8249 333e 6ba8 d2bc f9e0 3b3e
00000320: 8cc8 60be fa63 783e 6492 103c eafe 113d
00000330: 72b4 d23d fec3 3b3e ac24 c0bd 1f41 f13d
00000340: c7b5 0b3e 4bd4 df3d 169e 3d3e 39b3 7c3d
00000350: 1970 673e fe6b 533d 0484 79be 27a8 5d3d
00000360: 8cfd 8d3e dbb4 4b3e c027 86be e921 603e
00000370: 7d1c 313e 04e7 2ebe dbcf 45bb 6dd1 df3d
00000380: d863 20be 0abc 763d f160 63bd fcab 393e
00000390: b90f 203e f749 85bc e6e1 97bd fdf7 dc3d
000003a0: b090 833e 820f 613e 4f97 f83d b9b4 253e
000003b0: acbf 113e e8cc c83d 4843 6dbe 7e72 013d
000003c0: fb22 053e 4e45 8b3e 9a5f ed3d 5adb 0c3e
000003d0: 8c04 66be 0288 423d d529 783d ff52 853d
000003e0: 51b5 d73d 49e5 2dbe f469 ea3d 4395 343e
000003f0: c280 ffbd a5c9 ab3d 311a 2d3e 7ac3 1a3e

l2.bias f4 [64]
0.055815894 0.22172804 0.089188986 0.115907535 0.107761584 0.03954206 0.22357261 -0.010681517
0.12307372 -0.08863205 0.20303465 0.16082808 0.15380758 0.17594855 -0.056865104 0.19927567
0.111863755 -0.035393815 0.14585209 0.20110807 -0.010417895 -0.0720723 -0.08327334 -0.12323909
0.0038871747 -0.0018270132 0.11956148 0.19752225 0.18434203 0.058245983 0.016312698 -0.14248106
0.27121156 -0.0909474 0.18600842 0.21052109 0.073870085 -0.04444729 0.21829833 0.22144778
0.15379946 0.102925256 -0.038435627 -0.07812735 0.05058844 0.2352032 0.01739945 0.24048604
0.24980709 0.034639172 0.1301613 0.0018623078 0.025143297 0.0654392 -0.13156456 -0.047017608
0.018758057 0.015559524 -0.06325905 0.15765417 0.10866588 0.08043887 -0.04237151 -0.060800184
00000000: 359f 643d ad0c 633e b7a8 b63d ee60 ed3d
00000010: 1bb2 dc3d dbf6 213d 38f0 643e 8801 2fbc
00000020: 130e fc3d b884 b5bd 51e8 4f3e 1eb0 243e
00000030: bc7f 1d3e db2b 343e 62eb 68bd ec0e 4c3e
00000040: d318 e53d 1bf9 10bd 405a 153e 46ef 4d3e
00000050: d2af 2abc a49a 93bd 368b aabd c764 fcbd
00000060: f8bf 7e3b 6478 efba a6dc f43d 4643 4a3e
00000070: 28c4 3c3e 5793 6e3d 35a2 853c 8ee6 11be
00000080: 3edc 8a3e a142 babd fe78 3e3e d792 573e
00000090: 3349 973d 5d0e 36bd 9989 5f3e 35c3 623e
000000a0: 9b7d 1d3e 7aca d23d ad6e 1dbd 3b01 a0bd
000000b0: d335 4f3d 1cd9 703e 4b89 8e3c f941 763e
000000c0: 6ecd 7f3e cee1 0d3d 0149 053e ae18 f43a
000000d0: 51f9 cd3c fd04 863d dcb8 06be 8995 40bd
000000e0: 7faa 993c 60ed 7e3c f68d 81bd 1870 213e
000000f0: 388c de3d 22bd a43d c08d 2dbd 9d09 79bd

l3.weight f4 [7, 64]
0.16094252 0.17846635 -0.27003163 -0.103851646 0.19007733 -0.25615126 -0.023529729 0.17557436
-0.2404005 0.02051796 -0.11958492 -0.112613656 -0.06020013 -0.15108457 0.21021883 -0.16052756
0.13074544 0.13488184 -0.16764289 0.061671678 0.14314915 -0.04636969 -0.5415707 -0.12130924
-0.251858 0.18991694 -0.23597544 0.17096332 -0.24148086 0.17853352 0.14191413 0.18903548
0.14813136 0.025403691 0.13692634 -0.14129815 0.07739884 0.109801054 -0.03441328 0.091932125
-0.19336691 -0.1303574 0.07353322 -0.06501541 -0.17034261 0.2057582 0.20497678 -0.21562122
-0.15535547 -0.21177416 0.07226395 0.1617024 -0.22817482 0.123812236 -0.09222769 -0.031741988
-0.28164417 0.21406373 -0.24725032 -0.09487907 -0.24056475 -0.2179159 -0.21380326 0.24956208
-0.11315399 -0.15103759 0.09522577 0.2177142 -0.0032136722 -0.05396959 -0.15937884 -0.16311832
-0.15333652 0.120503455 -0.205798 -0.13731518 0.17975217 0.16627792 -0.007719723 -0.07619597
0.11097769 -0.17121257 0.18675795 -0.16212416 -0.18331783 0.22914398 -0.5013467 0.24894509
-0.055820048 -0.16246985 -0.16984633 -0.21053766 0.028838687 -0.14246483 -0.061193336 -0.23219894
0.020452993 0.06507688 -0.19623815 -0.1736803 -0.2765911 -0.09027517 -0.12650117 0.1615271
0.18732446 0.28857604 -0.21152891 0.27100363 -0.2192196 -0.20125307 0.18971305 -0.21366602
-0.17071877 0.16543882 -0.23448715 -0.105002 0.24130501 -0.1767917 0.06681135 -0.021741875
-0.24695918 0.21009822 -0.2007618 -0.23706293 -0.044610217 -0.21943103 0.18460275 -0.027890874
-0.2424122 -0.12625831 0.22866032 0.028063217 0.28999898 -0.18084253 0.17961846 -0.30496705
0.22570579 -0.040396184 -0.27232176 -0.2775632 0.2175594 -0.09302737 -0.3218153 0.146105
0.23700663 -0.18897375 -0.24589951 -0.22195174 -0.21875523 -0.31356114 0.4765731 -0.09827454
-0.32632345 0.23067869 -0.21442422 -0.2506274 0.21142171 -0.1350707 0.059137803 -0.27298737
0.27851123 -0.009042562 -0.23339881 0.25339922 0.2560741 -0.10793859 -0.12818082 0.25413716
0.05284605 -0.33054212 -0.2785555 -0.32999837 -0.14108194 0.21082489 -0.0159 0.26204872
0.03456492 0.0665903 -0.29592833 -0.2903376 -0.2522849 -0.214728 0.10669655 -0.023131205
0.19753642 0.18199435 -0.26768327 0.15844089 0.03333115 0.1212537 -0.23385519 -0.17034969
0.14880297 0.28638074 0.1897912 -0.22056009 -0.18813044 0.36010692 0.14624077 -0.2731523
0.23025241 0.11197856 0.1223378 0.23696217 0.15679118 0.26967183 -0.3290028 0.1924363
-0.23325215 -0.1975794 0.28648072 0.19933178 -0.083468854 -0.1956238 -0.5742602 -0.23804273
-0.097691305 -0.32222852 0.19721283 0.124619894 -0.008439002 0.21502785 -0.34014872 -0.26358008
-0.26749256 0.016777676 0.18009683 0.22177906 0.18611293 -0.09914365 0.25389007 -0.18977161
-0.1434265 -0.03516851 0.18823676 -0.042307425 -0.052203853 0.19451097 0.00093702617 -0.23556729
0.24242789 -0.08080555 0.18427433 0.22892086 -0.08844331 0.25953022 -0.11506251 -0.047061335
-0.28972664 -0.26755872 -0.17247133 0.22409295 -0.19041213 0.20761144 -0.2376059 -0.19724308
00000000: 1ece 243e e2bf 363e 9641 8abe 2cb0 d4bd
00000010: a2a3 423e 4226 83be 6bc1 c0bc c4c9 333e
00000020: 8c2b 76be 4815 a83c f0e8 f4bd fda1 e6bd
00000030: 6994 76bd eab5 1abe 9b43 573e 5661 24be
00000040: 22e2 053e 771e 0a3e 94aa 2bbe 719b 7c3d
00000050: b195 123e 25ee 3dbd 61a4 0abf fb70 f8bd
00000060: 88f3 80be 9679 423e 8ca3 71be 0211 2f3e
00000070: c246 77be 7ed1 363e f051 113e 8492 413e
00000080: bfaf 173e 671b d03c 6b36 0c3e 76b0 10be
00000090: 4883 9e3d 60df e03d f1f4 0cbd e946 bc3d
000000a0: fa01 46be 697c 05be 9698 963d cd26 85bd
000000b0: 4b6e 2ebe 47b2 523e 6fe5 513e cfcb 5cbe
000000c0: 8115 1fbe 53db 58be 1fff 933d 5095 253e
000000d0: a9a6 69be 4591 fd3d dfe1 bcbd e303 02bd
000000e0: aa33 90be 8633 5b3e 302f 7dbe f54f c2bd
000000f0: 9b56 76be 5825 5fbe 3eef 5abe 348d 7f3e
00000100: 47bd e7bd 99a9 1abe ba05 c33d 79f0 5e3e
00000110: 799c 52bb 380f 5dbd 3534 23be 7d08 27be
00000120: 4004 1dbe 84ca f63d b6bc 52be 5a9c 0cbe
00000130: f410 383e c244 2a3e bbf5 fcbb a20c 9cbd
00000140: 4548 e33d 5952 2fbe 7a3d 3f3e e003 26be
00000150: abb7 3bbe b8a4 6a3e 4258 00bf 76eb 7e3e
00000160: 90a3 64bd 7f5e 26be 32ec 2dbe 2f97 57be
00000170: 1c3f ec3c 4de2 11be dda5 7abd 8fc5 6dbe
00000180: 098d a73c 0747 853d a7f2 48be 40d9 31be
00000190: 599d 8dbe 30e2 b8bd 8689 01be 5c67 253e
000001a0: fcd1 3f3e 3dc0 933e 099b 58be fdc0 8a3e
000001b0: 1a7b 60be 4915 4ebe 2344 423e 44cb 5abe
000001c0: e7d0 2ebe cb68 293e 661d 70be 4a0b d7bd
000001d0: a918 773e e208 35be 64d4 883d 041c b2bc
000001e0: dee2 7cbe fd23 573e 8094 4dbe a0c0 72be
000001f0: 34b9 36bd 87b2 60be 8108 3d3e 677b e4bc
00000200: e73a 78be dc49 01be ee25 6a3e d5e4 e53c
00000210: bf7a 943e c92e 39be e7ed 373e a424 9cbe
00000220: 6b1f 673e 7876 25bd c26d 8bbe c41c 8ebe
00000230: e4c7 5e3e 2285 bebd fac4 a4be 8d9c 153e
00000240: deb1 723e 5682 41be 15cd 7bbe 5147 63be
00000250: 5f01 60be 168b a0be 6401 f43e 2944 c9bd
00000260: de13 a7be 0937 6c3e 0692 5bbe 3c52 80be
00000270: ef7e 583e f94f 0abe 7b3a 723d 00c5 8bbe
00000280: 0699 8e3e 4127 14bc 1900 6fbe 8bbd 813e
00000290: 251c 833e e80e ddbd d541 03be 441e 823e
000002a0: 1a75 583d d13c a9be d49e 8ebe 8cf5 a8be
000002b0: c977 10be 7be2 573e b840 82bc 402b 863e
000002c0: f293 0d3d 7f60 883d eb83 97be 21a7 94be
000002d0: 7d2b 81be a8e1 5bbe b983 da3d a77d bdbc
000002e0: fd46 4a3e ba5c 3a3e c80d 89be 543e 223e
000002f0: 3e86 083d dc53 f83d bc77 6fbe 2670 2ebe
00000300: ce5f 183e 7fa0 923e a058 423e 81da 61be
00000310: 44a5 40be ef5f b83e 24c0 153e 9eda 8bbe
00000320: 4ac7 6b3e 0455 e53d 3e8c fa3d 36a6 723e
00000330: de8d 203e 6d12 8a3e 0e73 a8be 050e 453e
00000340: a7d9 6ebe 4152 4abe 9aad 923e a11d 4c3e
00000350: b8f1 aabd 9b51 48be b702 13bf 79c1 73be
00000360: 6112 c8bd 23fb a4be 29f2 493e b738 ff3d
00000370: bd43 0abc 4330 5c3e f927 aebe f8f3 86be
00000380: c9f4 88be 5671 893c 4e6b 383e 0d1a 633e
00000390: 6394 3e3e d30b cbbd e1fd 813e 7d53 42be
000003a0: 65de 12be db0c 10bd 23c1 403e 8d4a 2dbd
000003b0: b5d3 55bd e22d 473e c3a2 753a 8d38 71be
000003c0: 043f 783e 617d a5bd 69b2 3c3e 3b6a 6a3e
000003d0: c421 b5bd 25e1 843e e5a5 ebbd 63c3 40bd
000003e0: 0d57 94be 75fd 88be 539c 30be 9f78 653e
000003f0: 66fb 42be 1898 543e f64e 73be 17fa 49be

l3.bias f4 [7]
-0.24121597 -0.029393902 0.12736492 0.08479637 -0.25560144 -0.03645038 0.14479327
00000000: 5201 77be 7bcb f0bc f36b 023e b8a9 ad3d
00000010: 31de 82be fe4c 15bd b044 143e
